…
Command: python3 src/main.py --save-dir /home/sc.uni-leipzig.de/ll95wyqa/projects/flidp/results/all-2025-01-22_18:03:55/cifar10_individual-relaxed_iid_2025-01-22_21:13:28 --dataset cifar10 --model simple-cnn --budgets 10.0 20.0 30.0 --ratios 0.34 0.43 0.23 --rounds 420 --clients-per-round 30 --local-epochs 15 --batch-size 128 --client-lr 0.0005 --server-lr 1.0 --make-iid
dp level was set to idp.
Model: "sequential"
_________________________________________________________________
 Layer (type)                Output Shape              Param #   
=================================================================
 rescaling (Rescaling)       (None, 32, 32, 3)         0         
                                                                 
 conv2d (Conv2D)             (None, 30, 30, 32)        896       
                                                                 
 max_pooling2d (MaxPooling2  (None, 15, 15, 32)        0         
 D)                                                              
                                                                 
 dropout (Dropout)           (None, 15, 15, 32)        0         
                                                                 
 conv2d_1 (Conv2D)           (None, 13, 13, 32)        9248      
                                                                 
 max_pooling2d_1 (MaxPoolin  (None, 6, 6, 32)          0         
 g2D)                                                            
                                                                 
 dropout_1 (Dropout)         (None, 6, 6, 32)          0         
                                                                 
 conv2d_2 (Conv2D)           (None, 4, 4, 32)          9248      
                                                                 
 max_pooling2d_2 (MaxPoolin  (None, 2, 2, 32)          0         
 g2D)                                                            
                                                                 
 dropout_2 (Dropout)         (None, 2, 2, 32)          0         
                                                                 
 flatten (Flatten)           (None, 128)               0         
                                                                 
 dense (Dense)               (None, 64)                8256      
                                                                 
 dropout_3 (Dropout)         (None, 64)                0         
                                                                 
 dense_1 (Dense)             (None, 10)                650       
                                                                 
=================================================================
Total params: 28298 (110.54 KB)
Trainable params: 28298 (110.54 KB)
Non-trainable params: 0 (0.00 Byte)
_________________________________________________________________
None
Starting to create iid dataset
Finished creating iid dataset
Round 0: OrderedDict([('sparse_categorical_accuracy', 0.1002), ('loss', 2.3180542), ('num_examples', 10000), ('num_batches', 79)]) {'noise_multiplier_after_adaptive_clipping': 0.701126, 'sum_clipping_norm': 0.1, 'sum_stddev': 0.07011259}
…
